…
    "resume": null,
    "return_polar": false,
    "scheduler": "step",
    "seed": 2000,
    "start_epoch": 0,
    "sync_bn": false,
    "test_area": 5,
    "train_freq": 250,
    "val_freq": 1,
    "voxel_max": 80000,
    "voxel_size": 0.04,
    "weight_decay": 0.01,
    "workers": 8,
    "world_size": 1
}
[2023-05-14 15:00:20,440 INFO train_s3dis.py line 134 1708190] => creating models ...
[2023-05-14 15:00:20,440 INFO train_s3dis.py line 135 1708190] Classes: 13
[2023-05-14 15:00:20,440 INFO train_s3dis.py line 136 1708190] Model(
  (sa1): SurfaceAbstractionCD(
    (mlp_convs): ModuleList(
      (0): Conv1d(32, 32, kernel_size=(1,), stride=(1,))
      (1): Conv1d(32, 64, kernel_size=(1,), stride=(1,))
    )
    (mlp_bns): ModuleList(
      (0): BatchNorm1d(32, eps=1e-05, momentum=0.1, affine=True, track_running_stats=True)
      (1): BatchNorm1d(64, eps=1e-05, momentum=0.1, affine=True, track_running_stats=True)
    )
    (mlp_l0): Conv1d(3, 32, kernel_size=(1,), stride=(1,))
    (mlp_f0): Conv1d(16, 32, kernel_size=(1,), stride=(1,))
    (bn_l0): BatchNorm1d(32, eps=1e-05, momentum=0.1, affine=True, track_running_stats=True)
    (bn_f0): BatchNorm1d(32, eps=1e-05, momentum=0.1, affine=True, track_running_stats=True)
  )
  (sa2): SurfaceAbstractionCD(
    (mlp_convs): ModuleList(
      (0): Conv1d(64, 64, kernel_size=(1,), stride=(1,))
      (1): Conv1d(64, 128, kernel_size=(1,), stride=(1,))
    )
    (mlp_bns): ModuleList(
      (0): BatchNorm1d(64, eps=1e-05, momentum=0.1, affine=True, track_running_stats=True)
      (1): BatchNorm1d(128, eps=1e-05, momentum=0.1, affine=True, track_running_stats=True)
    )
    (mlp_l0): Conv1d(3, 64, kernel_size=(1,), stride=(1,))
    (mlp_f0): Conv1d(74, 64, kernel_size=(1,), stride=(1,))
    (bn_l0): BatchNorm1d(64, eps=1e-05, momentum=0.1, affine=True, track_running_stats=True)
    (bn_f0): BatchNorm1d(64, eps=1e-05, momentum=0.1, affine=True, track_running_stats=True)
  )
  (sa3): SurfaceAbstractionCD(
    (mlp_convs): ModuleList(
      (0): Conv1d(128, 128, kernel_size=(1,), stride=(1,))
      (1): Conv1d(128, 256, kernel_size=(1,), stride=(1,))
    )
    (mlp_bns): ModuleList(
      (0): BatchNorm1d(128, eps=1e-05, momentum=0.1, affine=True, track_running_stats=True)
      (1): BatchNorm1d(256, eps=1e-05, momentum=0.1, affine=True, track_running_stats=True)
    )
    (mlp_l0): Conv1d(3, 128, kernel_size=(1,), stride=(1,))
    (mlp_f0): Conv1d(138, 128, kernel_size=(1,), stride=(1,))
    (bn_l0): BatchNorm1d(128, eps=1e-05, momentum=0.1, affine=True, track_running_stats=True)
    (bn_f0): BatchNorm1d(128, eps=1e-05, momentum=0.1, affine=True, track_running_stats=True)
  )
  (sa4): SurfaceAbstractionCD(
    (mlp_convs): ModuleList(
      (0): Conv1d(256, 256, kernel_size=(1,), stride=(1,))
      (1): Conv1d(256, 512, kernel_size=(1,), stride=(1,))
    )
    (mlp_bns): ModuleList(
      (0): BatchNorm1d(256, eps=1e-05, momentum=0.1, affine=True, track_running_stats=True)
      (1): BatchNorm1d(512, eps=1e-05, momentum=0.1, affine=True, track_running_stats=True)
    )
    (mlp_l0): Conv1d(3, 256, kernel_size=(1,), stride=(1,))
    (mlp_f0): Conv1d(266, 256, kernel_size=(1,), stride=(1,))
    (bn_l0): BatchNorm1d(256, eps=1e-05, momentum=0.1, affine=True, track_running_stats=True)
    (bn_f0): BatchNorm1d(256, eps=1e-05, momentum=0.1, affine=True, track_running_stats=True)
  )
  (fp4): SurfaceFeaturePropagationCD(
    (mlp_convs): ModuleList(
      (0): Linear(in_features=256, out_features=256, bias=True)
    )
    (mlp_bns): ModuleList(
      (0): BatchNorm1d(256, eps=1e-05, momentum=0.1, affine=True, track_running_stats=True)
    )
    (transup): SymmetricTransitionUpBlock(
      (linear1): Sequential(
        (0): Linear(in_features=256, out_features=256, bias=False)
        (1): BatchNorm1d(256, eps=1e-05, momentum=0.1, affine=True, track_running_stats=True)
        (2): ReLU(inplace=True)
      )
      (linear2): Sequential(
        (0): Linear(in_features=512, out_features=256, bias=False)
        (1): BatchNorm1d(256, eps=1e-05, momentum=0.1, affine=True, track_running_stats=True)
        (2): ReLU(inplace=True)
      )
      (channel_shrinker): Sequential(
        (0): Linear(in_features=515, out_features=512, bias=False)
        (1): BatchNorm1d(512, eps=1e-05, momentum=0.1, affine=True, track_running_stats=True)
        (2): ReLU(inplace=True)
        (3): Linear(in_features=512, out_features=1, bias=True)
      )
    )
    (mlp_f0): Linear(in_features=512, out_features=256, bias=True)
    (norm_f0): BatchNorm1d(256, eps=1e-05, momentum=0.1, affine=True, track_running_stats=True)
    (mlp_f1): Linear(in_features=256, out_features=256, bias=True)
    (norm_f1): BatchNorm1d(256, eps=1e-05, momentum=0.1, affine=True, track_running_stats=True)
    (mlp_s0): Linear(in_features=256, out_features=256, bias=True)
    (norm_s0): BatchNorm1d(256, eps=1e-05, momentum=0.1, affine=True, track_running_stats=True)
  )
  (fp3): SurfaceFeaturePropagationCD(
    (mlp_convs): ModuleList(
      (0): Linear(in_features=256, out_features=256, bias=True)
    )
    (mlp_bns): ModuleList(
      (0): BatchNorm1d(256, eps=1e-05, momentum=0.1, affine=True, track_running_stats=True)
    )
    (transup): SymmetricTransitionUpBlock(
      (linear1): Sequential(
        (0): Linear(in_features=128, out_features=128, bias=False)
        (1): BatchNorm1d(128, eps=1e-05, momentum=0.1, affine=True, track_running_stats=True)
        (2): ReLU(inplace=True)
      )
      (linear2): Sequential(
        (0): Linear(in_features=256, out_features=128, bias=False)
        (1): BatchNorm1d(128, eps=1e-05, momentum=0.1, affine=True, track_running_stats=True)
        (2): ReLU(inplace=True)
      )
      (channel_shrinker): Sequential(
        (0): Linear(in_features=259, out_features=256, bias=False)
        (1): BatchNorm1d(256, eps=1e-05, momentum=0.1, affine=True, track_running_stats=True)
        (2): ReLU(inplace=True)
        (3): Linear(in_features=256, out_features=1, bias=True)
      )
    )
    (mlp_f0): Linear(in_features=256, out_features=256, bias=True)
    (norm_f0): BatchNorm1d(256, eps=1e-05, momentum=0.1, affine=True, track_running_stats=True)
    (mlp_f1): Linear(in_features=128, out_features=256, bias=True)
    (norm_f1): BatchNorm1d(256, eps=1e-05, momentum=0.1, affine=True, track_running_stats=True)
    (mlp_s0): Linear(in_features=128, out_features=256, bias=True)
    (norm_s0): BatchNorm1d(256, eps=1e-05, momentum=0.1, affine=True, track_running_stats=True)
  )
  (fp2): SurfaceFeaturePropagationCD(
    (mlp_convs): ModuleList(
      (0): Linear(in_features=256, out_features=128, bias=True)
    )
    (mlp_bns): ModuleList(
      (0): BatchNorm1d(128, eps=1e-05, momentum=0.1, affine=True, track_running_stats=True)
    )
    (transup): SymmetricTransitionUpBlock(
      (linear1): Sequential(
        (0): Linear(in_features=64, out_features=64, bias=False)
        (1): BatchNorm1d(64, eps=1e-05, momentum=0.1, affine=True, track_running_stats=True)
        (2): ReLU(inplace=True)
      )
      (linear2): Sequential(
        (0): Linear(in_features=256, out_features=64, bias=False)
        (1): BatchNorm1d(64, eps=1e-05, momentum=0.1, affine=True, track_running_stats=True)
        (2): ReLU(inplace=True)
      )
      (channel_shrinker): Sequential(
        (0): Linear(in_features=259, out_features=256, bias=False)
        (1): BatchNorm1d(256, eps=1e-05, momentum=0.1, affine=True, track_running_stats=True)
        (2): ReLU(inplace=True)
        (3): Linear(in_features=256, out_features=1, bias=True)
      )
    )
    (mlp_f0): Linear(in_features=256, out_features=256, bias=True)
    (norm_f0): BatchNorm1d(256, eps=1e-05, momentum=0.1, affine=True, track_running_stats=True)
    (mlp_f1): Linear(in_features=64, out_features=256, bias=True)
    (norm_f1): BatchNorm1d(256, eps=1e-05, momentum=0.1, affine=True, track_running_stats=True)
    (mlp_s0): Linear(in_features=64, out_features=256, bias=True)
    (norm_s0): BatchNorm1d(256, eps=1e-05, momentum=0.1, affine=True, track_running_stats=True)
  )
  (fp1): SurfaceFeaturePropagationCD(
    (mlp_convs): ModuleList(
      (0): Linear(in_features=128, out_features=128, bias=True)
      (1): Linear(in_features=128, out_features=128, bias=True)
    )
    (mlp_bns): ModuleList(
      (0): BatchNorm1d(128, eps=1e-05, momentum=0.1, affine=True, track_running_stats=True)
      (1): BatchNorm1d(128, eps=1e-05, momentum=0.1, affine=True, track_running_stats=True)
    )
    (transup): SymmetricTransitionUpBlock(
      (linear1): Sequential(
        (0): Linear(in_features=256, out_features=128, bias=False)
        (1): BatchNorm1d(128, eps=1e-05, momentum=0.1, affine=True, track_running_stats=True)
        (2): ReLU(inplace=True)
      )
      (linear2): Sequential(
        (0): Linear(in_features=128, out_features=128, bias=True)
        (1): ReLU(inplace=True)
      )
    )
    (mlp_f0): Linear(in_features=128, out_features=128, bias=True)
    (norm_f0): BatchNorm1d(128, eps=1e-05, momentum=0.1, affine=True, track_running_stats=True)
  )
  (classifier): Sequential(
    (0): Linear(in_features=128, out_features=128, bias=True)
    (1): BatchNorm1d(128, eps=1e-05, momentum=0.1, affine=True, track_running_stats=True)
    (2): ReLU(inplace=True)
    (3): Dropout(p=0.5, inplace=False)
    (4): Linear(in_features=128, out_features=13, bias=True)
  )
  (surface_constructor): UmbrellaSurfaceConstructor(
    (mlps): Sequential(
      (0): Conv1d(10, 10, kernel_size=(1,), stride=(1,))
      (1): BatchNorm1d(10, eps=1e-05, momentum=0.1, affine=True, track_running_stats=True)
      (2): ReLU(inplace=True)
      (3): Conv1d(10, 10, kernel_size=(1,), stride=(1,))
    )
  )
)
[2023-05-14 15:00:20,443 INFO train_s3dis.py line 139 1708190] Total Number of Parameters: 1.810 M
[2023-05-14 15:00:23,783 INFO train_s3dis.py line 172 1708190] Totally 204 samples in train set.
[2023-05-14 15:00:23,784 INFO train_s3dis.py line 173 1708190] Totally 68 samples in val set.
[2023-05-14 15:03:20,850 INFO train_s3dis.py line 336 1708190] Epoch: [1/300][250/1530] Batch 0.787 (0.708) Remain 90:15:13 Loss 1.3048 Accuracy 64.76
…
